source/trained_circuit_surrogate/circuit_model.npz (npz, 10646 bytes, 4 tensors)

limits f8 [2, 2]
0	0xc01c000000000000	-7.0
1	0x401c000000000000	7.0
2	0xc01c000000000000	-7.0
3	0x401c000000000000	7.0

pre_grid f8 [100, 2]
0	0xbfddcab3bc000000	-0.4654969535768032
1	0x4005ae50d7c00000	2.710115132853389
2	0x4012428638000000	4.564965128898621
3	0xc00a00e9b0000000	-3.2504457235336304
4	0x40034ffb10000000	2.4140530824661255
5	0x40146dade8000000	5.10710871219635
6	0xc01a38bbe6800000	-6.555404283106327
7	0xc0132498b0000000	-4.785738706588745
8	0xc0122b695c000000	-4.5423941016197205
9	0x4015a0ac00000000	5.4069061279296875
10	0x3fdf5c7400000000	0.4900178909301758
11	0xc016cdcf9a000000	-5.700987249612808
12	0x401a2cc3f0000000	6.543716192245483
13	0x3fe8daeb00000000	0.7767233848571777
14	0xc003640920000000	-2.4238455295562744
15	0xbfd0e02d00000000	-0.26368260383605957
16	0xc008234af0000000	-3.0172327756881714
17	0x400cdd9f00000000	3.608213424682617
18	0x4017cee308000000	5.952037930488586
19	0xc0106df30c000000	-4.107372462749481
20	0x3ff11a1ee0000000	1.068877100944519
21	0x4003ba7430000000	2.466041922569275
22	0xc00fb1d1c8000000	-3.961825907230377
23	0xc0017bbed8000000	-2.1854225993156433
24	0xc017c31f6b000000	-5.940549537539482
25	0x3ff0553000000000	1.0207977294921875
26	0x400837b400000000	3.0271987915039062
27	0xbff54261d0000000	-1.3287065625190735
28	0x400f8312a0000000	3.939000368118286
29	0x401b9f8a68000000	6.90580141544342
30	0xbff17da0c0000000	-1.0931708812713623
31	0xc01984751e800000	-6.3793530240654945
32	0xbff6a41a40000000	-1.4150640964508057
33	0x4018b0d5c8000000	6.172690510749817
34	0x400ceb83e0000000	3.614997625350952
35	0xc01abdb28c800000	-6.685251422226429
36	0x400acf5280000000	3.351231575012207
37	0x3ff8ac0280000000	1.541994571685791
38	0xc016798755000000	-5.618680313229561
39	0xbff3f96be0000000	-1.2483938932418823
40	0xc00d0f7bb8000000	-3.6325601935386658
41	0x3fff1dd600000000	1.944784164428711
42	0x3ff663ee20000000	1.3993970155715942
43	0xc0022051e0000000	-2.2657811641693115
44	0x40167c6838000000	5.621491312980652
45	0x40115d93e0000000	4.341384410858154
46	0xc00ac59290000000	-3.3464709520339966
47	0xc00e6952f4000000	-3.8014277517795563
48	0xc000c29460000000	-2.0950095653533936
49	0x3fa2c91c00000000	0.036690592765808105
50	0x401b7fa750000000	6.874661684036255
51	0xbfe2022c60000000	-0.5627653002738953
52	0x3fc45b8000000000	0.1590423583984375
53	0x4017af7760000000	5.921353816986084
54	0xc0137c1d64000000	-4.8712058663368225
55	0xc016748cec000000	-5.613818824291229
56	0xc01b82cad7c00000	-6.877726908773184
57	0x40125ef248000000	4.592721104621887
58	0x4000b94b70000000	2.090475916862488
59	0xc0137dcf02000000	-4.872859984636307
60	0x40138de508000000	4.888568997383118
61	0x400b99c840000000	3.4500889778137207
62	0xbfc2546f00000000	-0.14320170879364014
63	0xc0079c7d28000000	-2.9514105916023254
64	0xbfcecee880000000	-0.24068933725357056
65	0x4013c2cd98000000	4.940237402915955
66	0x4014ea5758000000	5.228848814964294
67	0xc011a772de000000	-4.413524121046066
68	0x3ffca913a0000000	1.7912784814834595
69	0x4007f0b800000000	2.9925384521484375
70	0xc01af501a2800000	-6.73926404863596
71	0xc00a66ff50000000	-3.300291657447815
72	0xc014fb3850000000	-5.2453320026397705
73	0x3fdf91de80000000	0.4932781457901001
74	0x3fcc72e600000000	0.22225642204284668
75	0xbfcb411600000000	-0.21292376518249512
76	0x401af8fda0000000	6.743155002593994
77	0x40164ad880000000	5.573091506958008
78	0xbffca0e710000000	-1.7892828583717346
79	0xc0184a24df000000	-6.072406277060509
80	0xc00a2837f8000000	-3.2696380019187927
81	0x40026e74d0000000	2.3039337396621704
82	0x40150b5b68000000	5.261090874671936
83	0xbffca89450000000	-1.791157066822052
84	0x3ffb806760000000	1.7188485860824585
85	0x400ef97800000000	3.8718109130859375
86	0xc00e00eb50000000	-3.7504488229751587
87	0xc010aa0866000000	-4.166047662496567
88	0xc0150f22f7000000	-5.264781817793846
89	0x401a90ea18000000	6.641517996788025
90	0x400a23c720000000	3.267469644546509
91	0xc019478f6c000000	-6.319883048534393
92	0x400e233240000000	3.767185688018799
93	0x3ff2e8fe00000000	1.1818828582763672
94	0xbffb35d5f0000000	-1.7006434798240662
95	0xbffb8d8c30000000	-1.7220575213432312
96	0xbff264ef10000000	-1.1496420502662659
97	0x3ff7a40f80000000	1.4775538444519043
98	0x401147fba0000000	4.320295810699463
99	0xbfef50cc40000000	-0.978613018989563
100	0x4005b6f260000000	2.714329481124878
101	0x401a3b25b8000000	6.557761073112488
102	0xc017435649000000	-5.815758839249611
103	0xc01b59d8fd200000	-6.837741808965802
104	0xc0112e0398000000	-4.294935584068298
105	0x400fa4e140000000	3.955507755279541
106	0x3ff2c50ba0000000	1.1731067895889282
107	0xc00d2f95f0000000	-3.6482352018356323
108	0x40173a3958000000	5.806859374046326
109	0x4000110b90000000	2.008322834968567
110	0xc005cd2a88000000	-2.7251787781715393
111	0xc00446c520000000	-2.534555673599243
112	0xc002aaaef8000000	-2.3333415389060974
113	0x4017809420000000	5.875565052032471
114	0x4018c9b720000000	6.196987628936768
115	0xc01557ee8d000000	-5.335870936512947
116	0x3fe8972c80000000	0.76845383644104
117	0x3fdaa62480000000	0.4163905382156372
118	0xc012ce20f0000000	-4.7012975215911865
119	0xbfe799f7a0000000	-0.7375448346138
120	0xc018c0579a000000	-6.187834173440933
121	0x40088e4ec0000000	3.069486141204834
122	0x4002c06fb0000000	2.3439630270004272
123	0xc0063479d8000000	-2.7756230235099792
124	0x4012b45d68000000	4.676137566566467
125	0x40128d0238000000	4.637703776359558
126	0xbfe958cfe0000000	-0.7920913100242615
127	0xc01499b58c000000	-5.150106608867645
128	0xbfe5c05fa0000000	-0.6797330975532532
129	0x4016a57bf8000000	5.661605715751648
130	0x4013292ba8000000	4.790205597877502
131	0xc017ee9f30000000	-5.983029127120972
132	0x4001d88c30000000	2.2307361364364624
133	0x3fe3fc8900000000	0.6245770454406738
134	0xc01932896f000000	-6.299352392554283
135	0xbfb58db200000000	-0.08419334888458252
136	0xc013395320000000	-4.805981159210205
137	0x40071db110000000	2.8894978761672974
138	0x3fe52f9b00000000	0.6620612144470215
139	0xc00b384aa0000000	-3.4024860858917236
140	0x40193784f0000000	6.304218053817749
141	0x40134cfa60000000	4.825173854827881
142	0xc001d292e8000000	-2.227819263935089
143	0xc0121fe4c6000000	-4.531146138906479
144	0xc006a54d98000000	-2.8307144045829773
145	0x3ff4f3f020000000	1.309555172920227
146	0x4016cc6798000000	5.699613928794861
147	0xbff97122d0000000	-1.59012109041214
148	0x3ff478c4a0000000	1.2794843912124634
149	0x401aeed6e0000000	6.733241558074951
150	0xc010c2d558000000	-4.190266966819763
151	0xc018efc14d000000	-6.2341358214616776
152	0xc016d127ae000000	-5.704252928495407
153	0x400e073ef0000000	3.7535380125045776
154	0x40069ecfc0000000	2.827544689178467
155	0xc0111ec2be000000	-4.280039757490158
156	0x4010d32a50000000	4.206216096878052
157	0x4001a2db40000000	2.204519748687744
158	0xbff4313530000000	-1.2620136141777039
159	0xbffe584cb0000000	-1.8965575098991394
160	0xbff96d1e40000000	-1.5891401767730713
161	0x4000fe5280000000	2.124180793762207
162	0x400f0b0de0000000	3.8803975582122803
163	0xc00357b9d0000000	-2.4178348779678345
164	0x40093a22c0000000	3.1533865928649902
165	0x40103ce3d8000000	4.059462904930115
166	0xc015823512000000	-5.37715557217598
167	0xc00c5ff220000000	-3.5468485355377197
168	0xc00ed90ed0000000	-3.8559852838516235
169	0x4019b5a240000000	6.427376747131348
170	0x3ff9c92060000000	1.6116031408309937
171	0xc01bde7ea0c00000	-6.967279922217131
172	0x40157849a8000000	5.367468476295471
173	0x3ff63cc2a0000000	1.3898340463638306
174	0xc00951dbe8000000	-3.1649702191352844
175	0xbff11a2dc0000000	-1.0688912868499756
176	0xbffe4dad30000000	-1.8939639925956726
177	0x4012f3bec0000000	4.738032341003418
178	0x401a8c0c50000000	6.636765718460083
179	0xc0142e9b34000000	-5.045513927936554
180	0x3fd5165e00000000	0.32949018478393555
181	0x4009822850000000	3.1885534524917603
182	0xc0148f29a0000000	-5.139807224273682
183	0xc0054cdda8000000	-2.662532150745392
184	0xc01a81f34d800000	-6.626904688775539
185	0x3fd4d45c00000000	0.32546138763427734
186	0x3ffe7c4ca0000000	1.9053465127944946
187	0xbfea5fca60000000	-0.8241931796073914
188	0x4014766598000000	5.11562192440033
189	0x4016fec758000000	5.748807311058044
190	0xbfd68a8cc0000000	-0.35220640897750854
191	0xc015dfdc9e000000	-5.468615025281906
192	0xbf9dd1b800000000	-0.029120326042175293
193	0x3fe5a35300000000	0.6761870384216309
194	0x401400f6c8000000	5.0009413957595825
195	0xbfd7954b80000000	-0.36848723888397217
196	0x3fffa9dde0000000	1.9789713621139526
197	0x4015268888000000	5.287630200386047
198	0xc01bf6b8f4c00000	-6.990939926356077
199	0xc01741d549000000	-5.814290180802345

pre_out f8 [100, 8]
0	0x40588357c2594343	98.0522313949305
1	0x40533daa5be91be6	76.96352288975285
2	0x4013b0f23dc5e9f7	4.922799077229221
3	0x40966eae4ea9204e	1435.6702219415633
4	0x404b8e5b5b0ac936	55.11216295267734
5	0x4023ceefefab21bd	9.904174317970382
6	0x403406256d8a93df	20.02400860436671
7	0x4020c0c3c1043f50	8.376493484276267
8	0x405942545508b123	101.03639722679922
9	0x40480b85db453276	48.09002247694745
10	0x400fcd3a25ac7745	3.9752085631616034
11	0x4097751a2a18784f	1501.275551206916
12	0x4048db0e7fa6b066	49.71137996329416
13	0x40204acc19e7bb7f	8.146088418519637
14	0x40306a9b2fbbf79c	16.41643045748752
15	0x401ba9d4ad7f1331	6.915850363617936
16	0x4053c7e09a05ed0a	79.12308359698014
17	0x404fc5094be32092	63.5393462046642
18	0x400f0aa34bb658ab	3.8801942744276707
19	0x40972c0e23cbba7f	1483.0138084251955
20	0x404a5c95c58d4e72	52.7233206691716
21	0x401c313544dc73cc	7.048054767566054
22	0x402dfd3ff21b00af	14.994628492161011
23	0x4017635910cacac7	5.8470194457792735
24	0x4065e005f64b362b	175.00072779359593
25	0x4051f3c6e76af83d	71.80901513525255
26	0x401c0dd277c53737	7.013498183643427
27	0x4095e43d7825c4ad	1401.0600286389629
28	0x404ada120436e550	53.703674818806235
29	0x40313bba30725681	17.233309772409942
30	0x403fdea62b233b7f	31.869723030187284
31	0x402e0b6e07079bfb	15.022323817900533
32	0x405df27e1b9a5152	119.78894701070865
33	0x4057ad6ebd2f7716	94.70988397250434
34	0x4018d6465dcc96d0	6.209252801525238
35	0x4095ccd477f73bd6	1395.2074888830443
36	0x404ca9739f00711d	57.323840975967165
37	0x402aba7d71b4a8dd	13.364238313010384
38	0x403a291729e142e5	26.16050969838661
39	0x4026ddf6820a97cc	11.43352133158978
40	0x405ec9993ee849cf	123.1499783771935
41	0x4049cdacf6a47ea9	51.606840925521574
42	0x4012f0d3382a78d2	4.735180738060267
43	0x4096e2cd76cd89b1	1464.70064850953
44	0x404954d1883d5fd8	50.66264441487118
45	0x40251fbffe5af875	10.56201166973572
46	0x4034763658257bd5	20.461766728545474
47	0x402230cd1fd8f691	9.095314975008735
48	0x40543332a2a18718	80.79996553205672
49	0x404e3030dafde3d4	60.376490949601845
50	0x400e80a13169e2e6	3.8128074512900296
51	0x4097610f8a5d761b	1496.2651762584053
52	0x404a03d8ec4e3ec2	52.03005746670307
53	0x401bf9935ef32d5d	6.993726237861975
54	0x402da379450decc8	14.8192845897196
55	0x40173d8abf0b7e2f	5.810099587513419
56	0x406036672fb441c9	129.7000959892887
57	0x4055d787615e0235	87.36763796024827
58	0x4018ed7ee5a5ffa4	6.231929386383772
59	0x4096039fa74205e1	1408.9059114757622
60	0x404c0922c6b866a0	56.07137378696393
61	0x402b9b9fbcb99c54	13.803953073175002
62	0x403aaacd7cc69640	26.667197988970884
63	0x4027b9836a7897ef	11.862330748768697
64	0x405d364c1e3c31a1	116.84839588049228
65	0x4056f9f5c2d6f1f2	91.90562506666882
66	0x4018144c22c28d76	6.019821684956119
67	0x4095e2f827235719	1400.7423367998038
68	0x404c817db485c3df	57.01164871722698
69	0x4029bafcc826a719	12.865209822386122
70	0x403944b8561a0dbc	25.26843774925304
71	0x4025fcd155c4706e	10.993784599522964
72	0x4059b4b7b4f1a63f	102.82371257399153
73	0x404709ad5b976757	46.0756029595638
74	0x400f9ab68c286860	3.9505434942084747
75	0x40977c9c282fcbaa	1503.1524970501
76	0x4048a837f6caf6f4	49.31420788679489
77	0x402054a8dbd9da0f	8.16535079035114
78	0x403068fbdbee8559	16.410093065006865
79	0x401bcd3bd08aa9ad	6.950423487151437
80	0x405570b9a908827f	85.76133180457144
81	0x4050de0110191cc2	67.4688148732412
82	0x4010dd66179fd15b	4.216209763650421
83	0x4096ec45fc338436	1467.0683448838658
84	0x404ac0f508e1dcd9	53.50747786549045
85	0x401ff79df5b21d29	7.9918135061227895
86	0x4030a42342f68a96	16.641163048926124
87	0x401abd6d0a078359	6.684986263950884
88	0x4063a09701f6715d	157.0184335530602
89	0x40542ee9754eced2	80.73299915977557
90	0x401b4ebd9abb46cd	6.826895158462958
91	0x4095ebe57d2a7d17	1402.9741102827882
92	0x404b76db69368686	54.928570891975184
93	0x40301aaccfde518a	16.10419940164278
94	0x403e4435ab95301e	30.266443942950097
95	0x402bee7dc1adfe87	13.965803196420223
96	0x406023162352f888	129.09645239072074
97	0x4057ff7377144514	95.99142243365742
98	0x401a0e21f37b28e9	6.51380138816078
99	0x4095cf31dbd23db7	1395.7986901140373
100	0x404c9689adbf3875	57.17607662045422
101	0x402cb0c899fc66d8	14.345280468045004
102	0x403bc75aefe93a84	27.778731340828486
103	0x4028a2e3df43c1dd	12.318144776364472
104	0x405748997bc0b062	93.13436788384709
105	0x404c14ddba08d525	56.16301656180648
106	0x401024a612640198	4.035789763788124
107	0x40975808b1cece0a	1494.0084907830483
108	0x4049a28e1cddec14	51.269961937294426
109	0x401fccd921c38832	7.950047042426421
110	0x403046ca7869b6d0	16.276526952561483
111	0x401ac2af300a5a8f	6.690121412879889
112	0x405338f582e86cd5	76.8899848241593
113	0x404ef63f38d96a1a	61.92380438438359
114	0x400e0c93b7d20825	3.756141124818003
115	0x409749bdb7e88d65	1490.4352718673993
116	0x404a2eed62fb0126	52.36661946540907
117	0x401ad6af284dec80	6.709652547603696
118	0x402ccc075536c936	14.39849344533705
119	0x4016307df05c84f9	5.547355418822229
120	0x406254ca5affa42f	146.64970159463834
121	0x404dbbd01b870cb5	59.467288437788206
122	0x4016e05e35fbb619	5.719109385956039
123	0x40965c9961525a41	1431.1497853152835
124	0x404a0dda18cec78e	52.10821828934341
125	0x402afc29df3c9483	13.492506958146128
126	0x403972259f12dea0	25.44588655672726
127	0x40276776cbaa9249	11.70207821328326
128	0x405a62da9023dbbe	105.5445900297336
129	0x4054f7bbe84621cd	83.87084395264465
130	0x40159576f814627c	5.395961643451866
131	0x409624dc6b0090eb	1417.2152519310428
132	0x404c0d55b34b450c	56.10417786765365
133	0x40264ff75202ae14	11.156183779551647
134	0x4036429478a0c0d6	22.26007799076691
135	0x4022f61a8f99dd5e	9.480671393902124
136	0x405aa3f7b3d8e852	106.56199356253026
137	0x4046987b379278ed	45.19126028682681
138	0x401008ac2a6a9db3	4.008469259984326
139	0x40977043f9b9a7ba	1500.066382313597
140	0x40488f05c94215d3	49.11736407973117
141	0x4020dc6657325dcb	8.430468296907653
142	0x4030d23831231a19	16.821169920987902
143	0x401ccfbf31e9a3f3	7.202877788434296
144	0x40540b2841b303e9	80.17433207017861
145	0x404ef8a0624ce4df	61.94239453081695
146	0x400ecda9d0603f06	3.850421550690842
147	0x4097496ea194a344	1490.358038256135
148	0x404a2ecfd143235a	52.365717084677
149	0x401c27b460b1340e	7.038774023833879
150	0x402dde6708e7b2af	14.934379843028493
151	0x4017612f27acefdd	5.844906444483027
152	0x4062b96f9260bc0d	149.79486960309478
153	0x4056367949fe7084	88.85115289542779
154	0x401b87bcaff6d680	6.882555722657003
155	0x4095dd687b44566b	1399.3520327260728
156	0x404bf4a7bb406a42	55.911368757679625
157	0x402fd44d36e1a2b2	15.914651598971748
158	0x403e2746acf861c2	30.153422175064186
159	0x402b87d431d8f044	13.765290792209392
160	0x405e7d38c3c79ed7	121.95658964628397
161	0x405768d10eb26797	93.63775985166863
162	0x4018eb8250a36e85	6.229989299750405
163	0x4095dab1a3d8e27d	1398.6734765899885
164	0x404c8caedde8d4b7	57.099086512267085
165	0x402afb913a2a895c	13.491342370693637
166	0x403a553f85c830d8	26.333000527739244
167	0x40271b75fcc42ef5	11.553634547184155
168	0x405a4659f9409eb6	105.09924155531448
169	0x404bc2f7a4dcbb95	55.523182494907054
170	0x4011731ee1d63214	4.362422493647063
171	0x40971e13a047fe0b	1479.5191661118322
172	0x40499e42fcad6c7e	51.236419281653966
173	0x40222f5cecf15e34	9.09250584074389
174	0x40321fef38b8bb57	18.124743981457268
175	0x401ee75ef63f4097	7.725948188410391
176	0x40532018c88ed58c	76.5015126604905
177	0x404eb555e63d8ea6	61.416683940942036
178	0x400dce7da2ebed80	3.725825569939559
179	0x409753ef7be5e077	1492.9838710706952
180	0x404a1fef8dfa44f9	52.249498126222484
181	0x401a898ce7bf8589	6.634326573433449
182	0x402c85e0c30dade3	14.26148042242034
183	0x4015eccb7f73e292	5.481245032737791
184	0x4064b424fe14b79a	165.62951568647696
185	0x4051fd1ebd4e3ffc	71.95500118867488
186	0x401af6716e624cc4	6.740667080640552
187	0x4095f8e42ff2aaaf	1406.2228391567876
188	0x404adfd725cc1997	53.74875328508204
189	0x40304d33ad9a9893	16.301569795840418
190	0x403e58be3859edfc	30.346652528720355
191	0x402c5c26a3cd75e8	14.179982298689495
192	0x405f26fd5319aa16	124.60921170717515
193	0x4055aa42b1c4d28d	86.6603207037062
194	0x401833736fa14538	6.050245041101611
195	0x40960ee76df248e3	1411.7260053498255
196	0x404c072fd09dc17a	56.056146695164855
197	0x402a78d12809d012	13.235970736692284
198	0x4039b7b39fb4644c	25.717584592381442
199	0x4026b434129564f9	11.351959782349228
200	0x4055a35209810ef0	86.55188214877467
201	0x404cf1a62c512df9	57.88788370097968
202	0x400f208d0be66c5a	3.8908940248198123
203	0x40976bf3c4adc6b7	1498.9880549576317
204	0x4049c101f7232b4d	51.50787247864955
205	0x401d90035cbed01b	7.3906378261054
206	0x402ecc8237b01e02	15.399430980919536
207	0x4018b7277042150d	6.178861383469905
208	0x4056b49943d47d85	90.82185455084807
209	0x405224cafe6800fc	72.57488975674272
210	0x401235ad88c6de47	4.552419793260532
211	0x4096a19b4a13d5de	1448.4016497706684
212	0x404b396895dc6ce1	54.448504192952676
213	0x4021bbe4ba730bdb	8.866979433578242
214	0x40323635dd8b1106	18.21175942082575
215	0x401dd2ef620137d9	7.455991298031187
216	0x4065da6bb34be0be	174.82564701862242
217	0x40518aeb7bf82155	70.17062281829324
218	0x401bca4bfa7a0666	6.94755545968801
219	0x4095e997b7157847	1402.398159347025
220	0x404ac1bce057589d	53.51357654824208
221	0x4031194183b8c155	17.0986559225142
222	0x403f9b5e3dce3726	31.606906760068476
223	0x402dd05085173846	14.90686431797452
224	0x405e5874eedbf4a6	121.3821370265965
225	0x4057f14a6b708aa5	95.77016721716298
226	0x40192d90dc5da594	6.294497912612673
227	0x4095c5d88587d17d	1393.461446878587
228	0x404cb5ecc2854e81	57.42128783711542
229	0x402b32d3b4d87f31	13.599271441867673
230	0x403a92926c396764	26.57254673387014
231	0x4027489cae9be1cb	11.641820389298024
232	0x405b65ab0892e58f	109.58856405587561
233	0x4047d232d14d7f80	47.642175829735606
234	0x4010c182d8c6cfa1	4.188975703367675
235	0x4097481ddd761e48	1490.0291651206953
236	0x4048d83714a0b0bd	49.68918092580996
237	0x4021d539483ce316	8.91645265334368
238	0x4031ab96c31a087a	17.670269197326412
239	0x401e81e1fd16a774	7.626838640697191
240	0x40533f5106d96e22	76.98932048066538
241	0x404ec2f655080d34	61.52314246075767
242	0x400df2a4040c274f	3.7434768978318185
243	0x40975242f9893007	1492.5654050288738
244	0x404a22e4cb411516	52.27260723760462
245	0x401ac2e4819adc37	6.690324807240407
246	0x402cb5f89f2e1bf4	14.355412458780826
247	0x4016203c7a735cd2	5.531480706492589
248	0x405f319c0d9c0b89	124.77514972914481
249	0x404dc15ea6942d02	59.510701010085555
250	0x401465a0219c4456	5.099243664896752
251	0x4096a7a6f8b6e78b	1449.9130581454108
252	0x404a0f3a94466a3b	52.118975195295626
253	0x4026baeaa5cb0cce	11.36507146934164
254	0x4035f4a9cc438a62	21.95571591042461
255	0x4023871344c2398b	9.763818882664756

grid_record f8 [100, 2]
0	0xbfddcab3bc000000	-0.4654969535768032
1	0x4005ae50d7c00000	2.710115132853389
2	0x4012428638000000	4.564965128898621
3	0xc00a00e9b0000000	-3.2504457235336304
4	0x40034ffb10000000	2.4140530824661255
5	0x40146dade8000000	5.10710871219635
6	0xc01a38bbe6800000	-6.555404283106327
7	0xc0132498b0000000	-4.785738706588745
8	0xc0122b695c000000	-4.5423941016197205
9	0x4015a0ac00000000	5.4069061279296875
10	0x3fdf5c7400000000	0.4900178909301758
11	0xc016cdcf9a000000	-5.700987249612808
12	0x401a2cc3f0000000	6.543716192245483
13	0x3fe8daeb00000000	0.7767233848571777
14	0xc003640920000000	-2.4238455295562744
15	0xbfd0e02d00000000	-0.26368260383605957
16	0xc008234af0000000	-3.0172327756881714
17	0x400cdd9f00000000	3.608213424682617
18	0x4017cee308000000	5.952037930488586
19	0xc0106df30c000000	-4.107372462749481
20	0x3ff11a1ee0000000	1.068877100944519
21	0x4003ba7430000000	2.466041922569275
22	0xc00fb1d1c8000000	-3.961825907230377
23	0xc0017bbed8000000	-2.1854225993156433
24	0xc017c31f6b000000	-5.940549537539482
25	0x3ff0553000000000	1.0207977294921875
26	0x400837b400000000	3.0271987915039062
27	0xbff54261d0000000	-1.3287065625190735
28	0x400f8312a0000000	3.939000368118286
29	0x401b9f8a68000000	6.90580141544342
30	0xbff17da0c0000000	-1.0931708812713623
31	0xc01984751e800000	-6.3793530240654945
32	0xbff6a41a40000000	-1.4150640964508057
33	0x4018b0d5c8000000	6.172690510749817
34	0x400ceb83e0000000	3.614997625350952
35	0xc01abdb28c800000	-6.685251422226429
36	0x400acf5280000000	3.351231575012207
37	0x3ff8ac0280000000	1.541994571685791
38	0xc016798755000000	-5.618680313229561
39	0xbff3f96be0000000	-1.2483938932418823
40	0xc00d0f7bb8000000	-3.6325601935386658
41	0x3fff1dd600000000	1.944784164428711
42	0x3ff663ee20000000	1.3993970155715942
43	0xc0022051e0000000	-2.2657811641693115
44	0x40167c6838000000	5.621491312980652
45	0x40115d93e0000000	4.341384410858154
46	0xc00ac59290000000	-3.3464709520339966
47	0xc00e6952f4000000	-3.8014277517795563
48	0xc000c29460000000	-2.0950095653533936
49	0x3fa2c91c00000000	0.036690592765808105
50	0x401b7fa750000000	6.874661684036255
51	0xbfe2022c60000000	-0.5627653002738953
52	0x3fc45b8000000000	0.1590423583984375
53	0x4017af7760000000	5.921353816986084
54	0xc0137c1d64000000	-4.8712058663368225
55	0xc016748cec000000	-5.613818824291229
56	0xc01b82cad7c00000	-6.877726908773184
57	0x40125ef248000000	4.592721104621887
58	0x4000b94b70000000	2.090475916862488
59	0xc0137dcf02000000	-4.872859984636307
60	0x40138de508000000	4.888568997383118
61	0x400b99c840000000	3.4500889778137207
62	0xbfc2546f00000000	-0.14320170879364014
63	0xc0079c7d28000000	-2.9514105916023254
64	0xbfcecee880000000	-0.24068933725357056
65	0x4013c2cd98000000	4.940237402915955
66	0x4014ea5758000000	5.228848814964294
67	0xc011a772de000000	-4.413524121046066
68	0x3ffca913a0000000	1.7912784814834595
69	0x4007f0b800000000	2.9925384521484375
70	0xc01af501a2800000	-6.73926404863596
71	0xc00a66ff50000000	-3.300291657447815
72	0xc014fb3850000000	-5.2453320026397705
73	0x3fdf91de80000000	0.4932781457901001
74	0x3fcc72e600000000	0.22225642204284668
75	0xbfcb411600000000	-0.21292376518249512
76	0x401af8fda0000000	6.743155002593994
77	0x40164ad880000000	5.573091506958008
78	0xbffca0e710000000	-1.7892828583717346
79	0xc0184a24df000000	-6.072406277060509
80	0xc00a2837f8000000	-3.2696380019187927
81	0x40026e74d0000000	2.3039337396621704
82	0x40150b5b68000000	5.261090874671936
83	0xbffca89450000000	-1.791157066822052
84	0x3ffb806760000000	1.7188485860824585
85	0x400ef97800000000	3.8718109130859375
86	0xc00e00eb50000000	-3.7504488229751587
87	0xc010aa0866000000	-4.166047662496567
88	0xc0150f22f7000000	-5.264781817793846
89	0x401a90ea18000000	6.641517996788025
90	0x400a23c720000000	3.267469644546509
91	0xc019478f6c000000	-6.319883048534393
92	0x400e233240000000	3.767185688018799
93	0x3ff2e8fe00000000	1.1818828582763672
94	0xbffb35d5f0000000	-1.7006434798240662
95	0xbffb8d8c30000000	-1.7220575213432312
96	0xbff264ef10000000	-1.1496420502662659
97	0x3ff7a40f80000000	1.4775538444519043
98	0x401147fba0000000	4.320295810699463
99	0xbfef50cc40000000	-0.978613018989563
100	0x4005b6f260000000	2.714329481124878
101	0x401a3b25b8000000	6.557761073112488
102	0xc017435649000000	-5.815758839249611
103	0xc01b59d8fd200000	-6.837741808965802
104	0xc0112e0398000000	-4.294935584068298
105	0x400fa4e140000000	3.955507755279541
106	0x3ff2c50ba0000000	1.1731067895889282
107	0xc00d2f95f0000000	-3.6482352018356323
108	0x40173a3958000000	5.806859374046326
109	0x4000110b90000000	2.008322834968567
110	0xc005cd2a88000000	-2.7251787781715393
111	0xc00446c520000000	-2.534555673599243
112	0xc002aaaef8000000	-2.3333415389060974
113	0x4017809420000000	5.875565052032471
114	0x4018c9b720000000	6.196987628936768
115	0xc01557ee8d000000	-5.335870936512947
116	0x3fe8972c80000000	0.76845383644104
117	0x3fdaa62480000000	0.4163905382156372
118	0xc012ce20f0000000	-4.7012975215911865
119	0xbfe799f7a0000000	-0.7375448346138
120	0xc018c0579a000000	-6.187834173440933
121	0x40088e4ec0000000	3.069486141204834
122	0x4002c06fb0000000	2.3439630270004272
123	0xc0063479d8000000	-2.7756230235099792
124	0x4012b45d68000000	4.676137566566467
125	0x40128d0238000000	4.637703776359558
126	0xbfe958cfe0000000	-0.7920913100242615
127	0xc01499b58c000000	-5.150106608867645
128	0xbfe5c05fa0000000	-0.6797330975532532
129	0x4016a57bf8000000	5.661605715751648
130	0x4013292ba8000000	4.790205597877502
131	0xc017ee9f30000000	-5.983029127120972
132	0x4001d88c30000000	2.2307361364364624
133	0x3fe3fc8900000000	0.6245770454406738
134	0xc01932896f000000	-6.299352392554283
135	0xbfb58db200000000	-0.08419334888458252
136	0xc013395320000000	-4.805981159210205
137	0x40071db110000000	2.8894978761672974
138	0x3fe52f9b00000000	0.6620612144470215
139	0xc00b384aa0000000	-3.4024860858917236
140	0x40193784f0000000	6.304218053817749
141	0x40134cfa60000000	4.825173854827881
142	0xc001d292e8000000	-2.227819263935089
143	0xc0121fe4c6000000	-4.531146138906479
144	0xc006a54d98000000	-2.8307144045829773
145	0x3ff4f3f020000000	1.309555172920227
146	0x4016cc6798000000	5.699613928794861
147	0xbff97122d0000000	-1.59012109041214
148	0x3ff478c4a0000000	1.2794843912124634
149	0x401aeed6e0000000	6.733241558074951
150	0xc010c2d558000000	-4.190266966819763
151	0xc018efc14d000000	-6.2341358214616776
152	0xc016d127ae000000	-5.704252928495407
153	0x400e073ef0000000	3.7535380125045776
154	0x40069ecfc0000000	2.827544689178467
155	0xc0111ec2be000000	-4.280039757490158
156	0x4010d32a50000000	4.206216096878052
157	0x4001a2db40000000	2.204519748687744
158	0xbff4313530000000	-1.2620136141777039
159	0xbffe584cb0000000	-1.8965575098991394
160	0xbff96d1e40000000	-1.5891401767730713
161	0x4000fe5280000000	2.124180793762207
162	0x400f0b0de0000000	3.8803975582122803
163	0xc00357b9d0000000	-2.4178348779678345
164	0x40093a22c0000000	3.1533865928649902
165	0x40103ce3d8000000	4.059462904930115
166	0xc015823512000000	-5.37715557217598
167	0xc00c5ff220000000	-3.5468485355377197
168	0xc00ed90ed0000000	-3.8559852838516235
169	0x4019b5a240000000	6.427376747131348
170	0x3ff9c92060000000	1.6116031408309937
171	0xc01bde7ea0c00000	-6.967279922217131
172	0x40157849a8000000	5.367468476295471
173	0x3ff63cc2a0000000	1.3898340463638306
174	0xc00951dbe8000000	-3.1649702191352844
175	0xbff11a2dc0000000	-1.0688912868499756
176	0xbffe4dad30000000	-1.8939639925956726
177	0x4012f3bec0000000	4.738032341003418
178	0x401a8c0c50000000	6.636765718460083
179	0xc0142e9b34000000	-5.045513927936554
180	0x3fd5165e00000000	0.32949018478393555
181	0x4009822850000000	3.1885534524917603
182	0xc0148f29a0000000	-5.139807224273682
183	0xc0054cdda8000000	-2.662532150745392
184	0xc01a81f34d800000	-6.626904688775539
185	0x3fd4d45c00000000	0.32546138763427734
186	0x3ffe7c4ca0000000	1.9053465127944946
187	0xbfea5fca60000000	-0.8241931796073914
188	0x4014766598000000	5.11562192440033
189	0x4016fec758000000	5.748807311058044
190	0xbfd68a8cc0000000	-0.35220640897750854
191	0xc015dfdc9e000000	-5.468615025281906
192	0xbf9dd1b800000000	-0.029120326042175293
193	0x3fe5a35300000000	0.6761870384216309
194	0x401400f6c8000000	5.0009413957595825
195	0xbfd7954b80000000	-0.36848723888397217
196	0x3fffa9dde0000000	1.9789713621139526
197	0x4015268888000000	5.287630200386047
198	0xc01bf6b8f4c00000	-6.990939926356077
199	0xc01741d549000000	-5.814290180802345
